…
on(&#39;relu&#39;, name=&#39;fc2_act&#39;))\r\n\r\n        model.add(Dropout(0.5, name=&#39;fc2_dropout&#39;))\r\n\r\n\r\n        # Classification\r\n        model.add(Dense(classes, kernel_initializer=glorot_uniform(seed=0), name=&#39;fc3&#39;))\r\n        model.add(Activation(&#39;softmax&#39;, name=&quot;softmax&quot;))\r\n        return model\r\n```\r\n\r\nHere are the results of model.summary() from the keras code\r\n```\r\nLayer (type)                 Output Shape              Param #   \r\n=================================================================\r\nblock1_conv1 (Conv1D)        (None, 5000, 32)          288       \r\n_________________________________________________________________\r\nbatch_normalization_1 (Batch (None, 5000, 32)          128       \r\n_________________________________________________________________\r\nblock1_adv_act1 (ELU)        (None, 5000, 32)          0         \r\n_________________________________________________________________\r\nblock1_conv2 (Conv1D)        (None, 5000, 32)          8224      \r\n_________________________________________________________________\r\nbatch_normalization_2 (Batch (None, 5000, 32)          128       \r\n_________________________________________________________________\r\nblock1_adv_act2 (ELU)        (None, 5000, 32)          0         \r\n_________________________________________________________________\r\nblock1_pool (MaxPooling1D)   (None, 1250, 32)          0         \r\n_________________________________________________________________\r\nblock1_dropout (Dropout)     (None, 1250, 32)          0         \r\n_________________________________________________________________\r\nblock2_conv1 (Conv1D)        (None, 1250, 64)          16448     \r\n_________________________________________________________________\r\nbatch_normalization_3 (Batch (None, 1250, 64)          256       \r\n_________________________________________________________________\r\nblock2_act1 (Activation)     (None, 1250, 64)          0         \r\n_________________________________________________________________\r\nblock2_conv2 (Conv1D)        (None, 1250, 64)          32832     \r\n_________________________________________________________________\r\nbatch_normalization_4 (Batch (None, 1250, 64)          256       \r\n_________________________________________________________________\r\nblock2_act2 (Activation)     (None, 1250, 64)          0         \r\n_________________________________________________________________\r\nblock2_pool (MaxPooling1D)   (None, 313, 64)           0         \r\n_________________________________________________________________\r\nblock2_dropout (Dropout)     (None, 313, 64)           0         \r\n_________________________________________________________________\r\nblock3_conv1 (Conv1D)        (None, 313, 128)          65664     \r\n_________________________________________________________________\r\nbatch_normalization_5 (Batch (None, 313, 128)          512       \r\n_________________________________________________________________\r\nblock3_act1 (Activation)     (None, 313, 128)          0         \r\n_________________________________________________________________\r\nblock3_conv2 (Conv1D)        (None, 313, 128)          131200    \r\n_________________________________________________________________\r\nbatch_normalization_6 (Batch (None, 313, 128)          512       \r\n_________________________________________________________________\r\nblock3_act2 (Activation)     (None, 313, 128)          0         \r\n_________________________________________________________________\r\nblock3_pool (MaxPooling1D)   (None, 79, 128)           0         \r\n_________________________________________________________________\r\nblock3_dropout (Dropout)     (None, 79, 128)           0         \r\n_________________________________________________________________\r\nblock4_conv1 (Conv1D)        (None, 79, 256)           262400    \r\n_________________________________________________________________\r\nbatch_normalization_7 (Batch (None, 79, 256)           1024      \r\n_________________________________________________________________\r\nblock4_act1 (Activation)     (None, 79, 256)           0         \r\n_________________________________________________________________\r\nblock4_conv2 (Conv1D)        (None, 79, 256)           524544    \r\n_________________________________________________________________\r\nbatch_normalization_8 (Batch (None, 79, 256)           1024      \r\n_________________________________________________________________\r\nblock4_act2 (Activation)     (None, 79, 256)           0         \r\n_________________________________________________________________\r\nblock4_pool (MaxPooling1D)   (None, 20, 256)           0         \r\n_________________________________________________________________\r\nblock4_dropout (Dropout)     (None, 20, 256)           0         \r\n_________________________________________________________________\r\nflatten (Flatten)            (None, 5120)              0         \r\n_________________________________________________________________\r\nfc1 (Dense)                  (None, 512)               2621952   \r\n_________________________________________________________________\r\nbatch_normalization_9 (Batch (None, 512)               2048      \r\n_________________________________________________________________\r\nfc1_act (Activation)         (None, 512)               0         \r\n_________________________________________________________________\r\nfc1_dropout (Dropout)        (None, 512)               0         \r\n_________________________________________________________________\r\nfc2 (Dense)                  (None, 512)               262656    \r\n_________________________________________________________________\r\nbatch_normalization_10 (Batc (None, 512)               2048      \r\n_________________________________________________________________\r\nfc2_act (Activation)         (None, 512)               0         \r\n_________________________________________________________________\r\nfc2_dropout (Dropout)        (None, 512)               0         \r\n_________________________________________________________________\r\nfc3 (Dense)                  (None, 101)               51813     \r\n_________________________________________________________________\r\nsoftmax (Activation)         (None, 101)               0         \r\n=================================================================\r\nTotal params: 3,985,957\r\nTrainable params: 3,981,989\r\nNon-trainable params: 3,968\r\n```\r\n\r\n\r\nHere is what I have made in pytorch\r\n```\r\nclass model(torch.nn.Module):\r\n    def __init__(self, input_channels, kernel_size, stride, pool_kernel, pool_stride, dropout_p, dropout_inplace=False):\r\n        sup
…
