…
   def forward(self, x):\r\n            x = self.pool(F.relu(self.conv1(x)))\r\n            x = self.pool(F.relu(self.conv2(x)))\r\n            x = x.view(x.shape[0], -1)\r\n            x = F.relu(self.fc1(x))\r\n            x = F.relu(self.fc2(x))\r\n            x = self.fc3(x)\r\n            return x\r\n\r\nGiving the following architecture:\r\n\r\n    ----------------------------------------------------------------\r\n            Layer (type)               Output Shape         Param #\r\n    ================================================================\r\n                Conv2d-1        [-1, 200, 508, 380]          15,200\r\n             MaxPool2d-2        [-1, 200, 254, 190]               0\r\n                Conv2d-3        [-1, 180, 250, 186]         900,180\r\n             MaxPool2d-4         [-1, 180, 125, 93]               0\r\n                Linear-5                  [-1, 120]     251,100,120\r\n                Linear-6                   [-1, 84]          10,164\r\n                Linear-7                    [-1, 5]             425\r\n    ================================================================\r\n    Total params: 252,026,089\r\n    Trainable params: 252,026,089\r\n    Non-trainable params: 0\r\n\r\n(You can use the [torchsummary](https://github.com/sksq96/pytorch-summary) package to generate these tables.)"
    },
    {
        "question_id": "57618507",
        "accepted_answer_id": "57876684",
        "question_title": "fastai error predicting with exported/reloaded model: &quot;Input type and weight type should be the same&quot;",
…
